…
spks': 2, 'global_blocks': {'in_channels': 256, 'num_mha_heads': 8, 'dropout_rate': 0.1}, 'local_blocks': {'in_channels': 256, 'kernel_size': 65, 'dropout_rate': 0.1}, 'spk_attention': {'in_channels': 256, 'num_mha_heads': 8, 'dropout_rate': 0.1}}}, 'module_output_layer': {'in_channels': 256, 'out_channels': 256, 'num_spks': 2}, 'module_audio_dec': {'in_channels': 256, 'out_channels': 1, 'kernel_size': 16, 'stride': 4, 'bias': False}})
2024-11-02 18:10:23.130 | DEBUG    | models.SepReformer_Large_DM_WSJ0.main:main:30 - Exiting 'Model' (result=Model(
  (audio_encoder): AudioEncoder(
    (conv1d): Conv1d(1, 256, kernel_size=(16,), stride=(4,), bias=False)
    (gelu): GELU(approximate='none')
  )
  (feature_projector): FeatureProjector(
    (norm): GroupNorm(1, 256, eps=1e-08, affine=True)
    (conv1d): Conv1d(256, 256, kernel_size=(1,), stride=(1,), bias=False)
  )
  (separator): Separator(
    (pos_emb): RelativePositionalEncoding(
      (pe_k): Embedding(4000, 32)
    )
    (enc_stages): ModuleList(
      (0-3): 4 x SepEncStage(
        (g_block_1): GlobalBlock(
          (block): ModuleDict(
            (ega): EGA(
              (block): ModuleDict(
                (self_attn): MultiHeadAttention(
                  (layer_norm): LayerNorm((256,), eps=1e-05, elementwise_affine=True)
                  (linear_q): Linear(in_features=256, out_features=256, bias=True)
                  (linear_k): Linear(in_features=256, out_features=256, bias=True)
                  (linear_v): Linear(in_features=256, out_features=256, bias=True)
                  (linear_out): Linear(in_features=256, out_features=256, bias=True)
                  (dropout): Dropout(p=0.1, inplace=False)
                  (Layer_scale): LayerScale()
                )
                (linear): Sequential(
                  (0): LayerNorm((256,), eps=1e-05, elementwise_affine=True)
                  (1): Linear(in_features=256, out_features=256, bias=True)
                  (2): Sigmoid()
                )
              )
            )
            (gcfn): GCFN(
              (net1): Sequential(
                (0): LayerNorm((256,), eps=1e-05, elementwise_affine=True)
                (1): Linear(in_features=256, out_features=1536, bias=True)
              )
              (depthwise): Conv1d(1536, 1536, kernel_size=(3,), stride=(1,), padding=(1,), groups=1536)
              (net2): Sequential(
                (0): GLU(dim=-1)
                (1): Dropout(p=0.1, inplace=False)
                (2): Linear(in_features=768, out_features=256, bias=True)
                (3): Dropout(p=0.1, inplace=False)
              )
              (Layer_scale): LayerScale()
            )
          )
        )
        (l_block_1): LocalBlock(
          (block): ModuleDict(
            (cla): CLA(
              (layer_norm): LayerNorm((256,), eps=1e-05, elementwise_affine=True)
              (linear1): Linear(in_features=256, out_features=512, bias=True)
              (GLU): GLU(dim=-1)
              (dw_conv_1d): Conv1d(256, 256, kernel_size=(65,), stride=(1,), padding=same, groups=256)
              (linear2): Linear(in_features=256, out_features=512, bias=True)
              (BN): BatchNorm1d(512, eps=1e-05, momentum=0.1, affine=True, track_running_stats=True)
              (linear3): Sequential(
                (0): GELU(approximate='none')
                (1): Linear(in_features=512, out_features=256, bias=True)
                (2): Dropout(p=0.1, inplace=False)
              )
              (Layer_scale): LayerScale()
            )
            (gcfn): GCFN(
              (net1): Sequential(
                (0): LayerNorm((256,), eps=1e-05, elementwise_affine=True)
                (1): Linear(in_features=256, out_features=1536, bias=True)
              )
              (depthwise): Conv1d(1536, 1536, kernel_size=(3,), stride=(1,), padding=(1,), groups=1536)
              (net2): Sequential(
                (0): GLU(dim=-1)
                (1): Dropout(p=0.1, inplace=False)
                (2): Linear(in_features=768, out_features=256, bias=True)
                (3): Dropout(p=0.1, inplace=False)
              )
              (Layer_scale): LayerScale()
            )
          )
        )
        (g_block_2): GlobalBlock(
          (block): ModuleDict(
            (ega): EGA(
              (block): ModuleDict(
                (self_attn): MultiHeadAttention(
                  (layer_norm): LayerNorm((256,), eps=1e-05, elementwise_affine=True)
                  (linear_q): Linear(in_features=256, out_features=256, bias=True)
                  (linear_k): Linear(in_features=256, out_features=256, bias=True)
                  (linear_v): Linear(in_features=256, out_features=256, bias=True)
                  (linear_out): Linear(in_features=256, out_features=256, bias=True)
                  (dropout): Dropout(p=0.1, inplace=False)
                  (Layer_scale): LayerScale()
                )
                (linear): Sequential(
                  (0): LayerNorm((256,), eps=1e-05, elementwise_affine=True)
                  (1): Linear(in_features=256, out_features=256, bias=True)
                  (2): Sigmoid()
                )
              )
            )
            (gcfn): GCFN(
              (net1): Sequential(
                (0): LayerNorm((256,), eps=1e-05, elementwise_affine=True)
                (1): Linear(in_features=256, out_features=1536, bias=True)
              )
              (depthwise): Conv1d(1536, 1536, kernel_size=(3,), stride=(1,), padding=(1,), groups=1536)
              (net2): Sequential(
                (0): GLU(dim=-1)
                (1): Dropout(p=0.1, inplace=False)
                (2): Linear(in_features=768, out_features=256, bias=True)
                (3): Dropout(p=0.1, inplace=False)
              )
              (Layer_scale): LayerScale()
            )
          )
        )
        (l_block_2): LocalBlock(
          (block): ModuleDict(
            (cla): CLA(
              (layer_norm): LayerNorm((256,), eps=1e-05, elementwise_affine=True)
              (linear1): Linear(in_features=256, out_features=512, bias=True)
              (GLU): GLU(dim=-1)
              (dw_conv_1d): Conv1d(256, 256, kernel_size=(65,), stride=(1,), padding=same, groups=256)
              (linear2): Linear(in_features=256, out_features=512, bias=True)
              (BN): BatchNorm1d(512, eps=1e-05, momentum=0.1, affine=True, track_running_stats=True)
              (linear3): Sequential(
                (0): GELU(approximate='none')
                (1): Linear(in_features=512, out_features=256, bias=True)
                (2): Dropout(p=0.1, inplace=False)
              )
              (Layer_scale): LayerScale()
            )
            (gcfn): GCFN(
              (net1): Sequential(
                (0): LayerNorm((256,), eps=1e-05, elementwise_affine=True)
                (1): Linear(in_features=256, out_features=1536, bias=True)
              )
              (depthwise): Conv1d(1536, 1536, kernel_size=(3,), stride=(1,), padding=(1,), groups=1536)
              (net2): Sequential(
                (0): GLU(dim=-1)
                (1): Dropout(p=0.1, inplace=False)
                (2): Linear(in_features=768, out_features=256, bias=True)
                (3): Dropout(p=0.1, inplace=False)
              )
              (Layer_scale): LayerScale()
            )
          )
        )
        (downconv): DownConvLayer(
          (down_conv): Conv1d(256, 256, kernel_size=(5,), stride=(2,), padding=(2,), groups=256)
          (BN): BatchNorm1d(256, eps=1e-05, momentum=0.1, affine=True, track_running_stats=True)
          (gelu): GELU(approximate='none')
        )
      )
    )
    (bottleneck_G): SepEncStage(
      (g_block_1): GlobalBlock(
        (block): ModuleDict(
          (ega): EGA(
            (block): ModuleDict(
              (self_attn): MultiHeadAttention(
                (layer_norm): LayerNorm((256,), eps=1e-05, elementwise_affine=True)
                (linear_q): Linear(in_features=256, out_features=256, bias=True)
                (linear_k): Linear(in_features=256, out_features=256, bias=True)
                (linear_v): Linear(in_features=256, out_features=256, bias=True)
                (linear_out): Linear(in_features=256, out_features=256, bias=True)
                (dropout): Dropout(p=0.1, inplace=False)
                (Layer_scale): LayerScale()
              )
              (linear): Sequential(
                (0): LayerNorm((256,), eps=1e-05, elementwise_affine=True)
                (1): Linear(in_features=256, out_features=256, bias=True)
                (2): Sigmoid()
              )
            )
          )
          (gcfn): GCFN(
            (net1): Sequential(
              (0): LayerNorm((256,), eps=1e-05, elementwise_affine=True)
              (1): Linear(in_features=256, out_features=1536, bias=True)
            )
            (depthwise): Conv1d(1536, 1536, kernel_size=(3,), stride=(1,), padding=(1,), groups=1536)
            (net2): Sequential(
              (0): GLU(dim=-1)
              (1): Dropout(p=0.1, inplace=False)
              (2): Linear(in_features=768, out_features=256, bias=True)
              (3): Dropout(p=0.1, inplace=False)
            )
            (Layer_scale): LayerScale()
          )
        )
      )
      (l_block_1): LocalBlock(
        (block): ModuleDict(
          (cla): CLA(
            (layer_norm): LayerNorm((256,), eps=1e-05, elementwise_affine=True)
            (linear1): Linear(in_features=256, out_features=512, bias=True)
            (GLU): GLU(dim=-1)
            (dw_conv_1d): Conv1d(256, 256, kernel_size=(65,), stride=(1,), padding=same, groups=256)
            (linear2): Linear(in_features=256, out_features=512, bias=True)
            (BN): BatchNorm1d(512, eps=1e-05, momentum=0.1, affine=True, track_running_stats=True)
            (linear3): Sequential(
              (0): GELU(approximate='none')
              (1): Linear(in_features=512, out_features=256, bias=True)
              (2): Dropout(p=0.1, inplace=False)
            )
            (Layer_scale): LayerScale()
          )
          (gcfn): GCFN(
            (net1): Sequential(
              (0): LayerNorm((256,), eps=1e-05, elementwise_affine=True)
              (1): Linear(in_features=256, out_features=1536, bias=True)
            )
            (depthwise): Conv1d(1536, 1536, kernel_size=(3,), stride=(1,), padding=(1,), groups=1536)
            (net2): Sequential(
              (0): GLU(dim=-1)
              (1): Dropout(p=0.1, inplace=False)
              (2): Linear(in_features=768, out_features=256, bias=True)
              (3): Dropout(p=0.1, inplace=False)
            )
            (Layer_scale): LayerScale()
          )
        )
      )
      (g_block_2): GlobalBlock(
        (block): ModuleDict(
          (ega): EGA(
            (block): ModuleDict(
              (self_attn): MultiHeadAttention(
                (layer_norm): LayerNorm((256,), eps=1e-05, elementwise_affine=True)
                (linear_q): Linear(in_features=256, out_features=256, bias=True)
                (linear_k): Linear(in_features=256, out_features=256, bias=True)
                (linear_v): Linear(in_features=256, out_features=256, bias=True)
                (linear_out): Linear(in_features=256, out_features=256, bias=True)
                (dropout): Dropout(p=0.1, inplace=False)
                (Layer_scale): LayerScale()
              )
              (linear): Sequential(
                (0): LayerNorm((256,), eps=1e-05, elementwise_affine=True)
                (1): Linear(in_features=256, out_features=256, bias=True)
                (2): Sigmoid()
              )
            )
          )
          (gcfn): GCFN(
            (net1): Sequential(
              (0): LayerNorm((256,), eps=1e-05, elementwise_affine=True)
              (1): Linear(in_features=256, out_features=1536, bias=True)
            )
            (depthwise): Conv1d(1536, 1536, kernel_size=(3,), stride=(1,), padding=(1,), groups=1536)
            (net2): Sequential(
              (0): GLU(dim=-1)
              (1): Dropout(p=0.1, inplace=False)
              (2): Linear(in_features=768, out_features=256, bias=True)
              (3): Dropout(p=0.1, inplace=False)
            )
            (Layer_scale): LayerScale()
          )
        )
      )
      (l_block_2): LocalBlock(
        (block): ModuleDict(
          (cla): CLA(
            (layer_norm): LayerNorm((256,), eps=1e-05, elementwise_affine=True)
            (linear1): Linear(in_features=256, out_features=512, bias=True)
            (GLU): GLU(dim=-1)
            (dw_conv_1d): Conv1d(256, 256, kernel_size=(65,), stride=(1,), padding=same, groups=256)
            (linear2): Linear(in_features=256, out_features=512, bias=True)
            (BN): BatchNorm1d(512, eps=1e-05, momentum=0.1, affine=True, track_running_stats=True)
            (linear3): Sequential(
              (0): GELU(approximate='none')
              (1): Linear(in_features=512, out_features=256, bias=True)
              (2): Dropout(p=0.1, inplace=False)
            )
            (Layer_scale): LayerScale()
          )
          (gcfn): GCFN(
            (net1): Sequential(
              (0): LayerNorm((256,), eps=1e-05, elementwise_affine=True)
              (1): Linear(in_features=256, out_features=1536, bias=True)
            )
            (depthwise): Conv1d(1536, 1536, kernel_size=(3,), stride=(1,), padding=(1,), groups=1536)
            (net2): Sequential(
              (0): GLU(dim=-1)
              (1): Dropout(p=0.1, inplace=False)
              (2): Linear(in_features=768, out_features=256, bias=True)
              (3): Dropout(p=0.1, inplace=False)
            )
            (Layer_scale): LayerScale()
          )
        )
      )
    )
    (spk_split_block): SpkSplitStage(
      (linear): Sequential(
        (0): Conv1d(256, 2048, kernel_size=(1,), stride=(1,))
        (1): GLU(dim=-2)
        (2): Conv1d(1024, 512, kernel_size=(1,), stride=(1,))
      )
      (norm): GroupNorm(1, 256, eps=1e-08, affine=True)
    )
    (simple_fusion): ModuleList(
      (0-3): 4 x Conv1d(512, 256, kernel_size=(1,), stride=(1,))
    )
    (dec_stages): ModuleList(
      (0-3): 4 x SepDecStage(
        (g_block_1): GlobalBlock(
          (block): ModuleDict(
            (ega): EGA(
              (block): ModuleDict(
                (self_attn): MultiHeadAttention(
                  (layer_norm): LayerNorm((256,), eps=1e-05, elementwise_affine=True)
                  (linear_q): Linear(in_features=256, out_features=256, bias=True)
                  (linear_k): Linear(in_features=256, out_features=256, bias=True)
                  (linear_v): Linear(in_features=256, out_features=256, bias=True)
                  (linear_out): Linear(in_features=256, out_features=256, bias=True)
                  (dropout): Dropout(p=0.1, inplace=False)
                  (Layer_scale): LayerScale()
                )
                (linear): Sequential(
                  (0): LayerNorm((256,), eps=1e-05, elementwise_affine=True)
                  (1): Linear(in_features=256, out_features=256, bias=True)
                  (2): Sigmoid()
                )
              )
            )
            (gcfn): GCFN(
              (net1): Sequential(
                (0): LayerNorm((256,), eps=1e-05, elementwise_affine=True)
                (1): Linear(in_features=256, out_features=1536, bias=True)
              )
              (depthwise): Conv1d(1536, 1536, kernel_size=(3,), stride=(1,), padding=(1,), groups=1536)
              (net2): Sequential(
                (0): GLU(dim=-1)
                (1): Dropout(p=0.1, inplace=False)
                (2): Linear(in_features=768, out_features=256, bias=True)
                (3): Dropout(p=0.1, inplace=False)
              )
              (Layer_scale): LayerScale()
            )
          )
        )
        (l_block_1): LocalBlock(
          (block): ModuleDict(
            (cla): CLA(
              (layer_norm): LayerNorm((256,), eps=1e-05, elementwise_affine=True)
              (linear1): Linear(in_features=256, out_features=512, bias=True)
              (GLU): GLU(dim=-1)
              (dw_conv_1d): Conv1d(256, 256, kernel_size=(65,), stride=(1,), padding=same, groups=256)
              (linear2): Linear(in_features=256, out_features=512, bias=True)
              (BN): BatchNorm1d(512, eps=1e-05, momentum=0.1, affine=True, track_running_stats=True)
              (linear3): Sequential(
                (0): GELU(approximate='none')
                (1): Linear(in_features=512, out_features=256, bias=True)
                (2): Dropout(p=0.1, inplace=False)
              )
              (Layer_scale): LayerScale()
            )
            (gcfn): GCFN(
              (net1): Sequential(
                (0): LayerNorm((256,), eps=1e-05, elementwise_affine=True)
                (1): Linear(in_features=256, out_features=1536, bias=True)
              )
              (depthwise): Conv1d(1536, 1536, kernel_size=(3,), stride=(1,), padding=(1,), groups=1536)
              (net2): Sequential(
                (0): GLU(dim=-1)
                (1): Dropout(p=0.1, inplace=False)
                (2): Linear(in_features=768, out_features=256, bias=True)
                (3): Dropout(p=0.1, inplace=False)
              )
              (Layer_scale): LayerScale()
            )
          )
        )
        (spk_attn_1): SpkAttention(
          (self_attn): MultiHeadAttention(
            (layer_norm): LayerNorm((256,), eps=1e-05, elementwise_affine=True)
            (linear_q): Linear(in_features=256, out_features=256, bias=True)
            (linear_k): Linear(in_features=256, out_features=256, bias=True)
            (linear_v): Linear(in_features=256, out_features=256, bias=True)
            (linear_out): Linear(in_features=256, out_features=256, bias=True)
            (dropout): Dropout(p=0.1, inplace=False)
            (Layer_scale): LayerScale()
          )
          (feed_forward): GCFN(
            (net1): Sequential(
              (0): LayerNorm((256,), eps=1e-05, elementwise_affine=True)
              (1): Linear(in_features=256, out_features=1536, bias=True)
            )
            (depthwise): Conv1d(1536, 1536, kernel_size=(3,), stride=(1,), padding=(1,), groups=1536)
            (net2): Sequential(
              (0): GLU(dim=-1)
              (1): Dropout(p=0.1, inplace=False)
              (2): Linear(in_features=768, out_features=256, bias=True)
              (3): Dropout(p=0.1, inplace=False)
            )
            (Layer_scale): LayerScale()
          )
        )
        (g_block_2): GlobalBlock(
          (block): ModuleDict(
            (ega): EGA(
              (block): ModuleDict(
                (self_attn): MultiHeadAttention(
                  (layer_norm): LayerNorm((256,), eps=1e-05, elementwise_affine=True)
                  (linear_q): Linear(in_features=256, out_features=256, bias=True)
                  (linear_k): Linear(in_features=256, out_features=256, bias=True)
                  (linear_v): Linear(in_features=256, out_features=256, bias=True)
                  (linear_out): Linear(in_features=256, out_features=256, bias=True)
                  (dropout): Dropout(p=0.1, inplace=False)
                  (Layer_scale): LayerScale()
                )
                (linear): Sequential(
                  (0): LayerNorm((256,), eps=1e-05, elementwise_affine=True)
                  (1): Linear(in_features=256, out_features=256, bias=True)
                  (2): Sigmoid()
                )
              )
            )
            (gcfn): GCFN(
              (net1): Sequential(
                (0): LayerNorm((256,), eps=1e-05, elementwise_affine=True)
                (1): Linear(in_features=256, out_features=1536, bias=True)
              )
              (depthwise): Conv1d(1536, 1536, kernel_size=(3,), stride=(1,), padding=(1,), groups=1536)
              (net2): Sequential(
                (0): GLU(dim=-1)
                (1): Dropout(p=0.1, inplace=False)
                (2): Linear(in_features=768, out_features=256, bias=True)
                (3): Dropout(p=0.1, inplace=False)
              )
              (Layer_scale): LayerScale()
            )
          )
        )
        (l_block_2): LocalBlock(
          (block): ModuleDict(
            (cla): CLA(
              (layer_norm): LayerNorm((256,), eps=1e-05, elementwise_affine=True)
              (linear1): Linear(in_features=256, out_features=512, bias=True)
              (GLU): GLU(dim=-1)
              (dw_conv_1d): Conv1d(256, 256, kernel_size=(65,), stride=(1,), padding=same, groups=256)
              (linear2): Linear(in_features=256, out_features=512, bias=True)
              (BN): BatchNorm1d(512, eps=1e-05, momentum=0.1, affine=True, track_running_stats=True)
              (linear3): Sequential(
                (0): GELU(approximate='none')
                (1): Linear(in_features=512, out_features=256, bias=True)
                (2): Dropout(p=0.1, inplace=False)
              )
              (Layer_scale): LayerScale()
            )
            (gcfn): GCFN(
              (net1): Sequential(
                (0): LayerNorm((256,), eps=1e-05, elementwise_affine=True)
                (1): Linear(in_features=256, out_features=1536, bias=True)
              )
              (depthwise): Conv1d(1536, 1536, kernel_size=(3,), stride=(1,), padding=(1,), groups=1536)
              (net2): Sequential(
                (0): GLU(dim=-1)
                (1): Dropout(p=0.1, inplace=False)
                (2): Linear(in_features=768, out_features=256, bias=True)
                (3): Dropout(p=0.1, inplace=False)
              )
              (Layer_scale): LayerScale()
            )
          )
        )
        (spk_attn_2): SpkAttention(
          (self_attn): MultiHeadAttention(
            (layer_norm): LayerNorm((256,), eps=1e-05, elementwise_affine=True)
            (linear_q): Linear(in_features=256, out_features=256, bias=True)
            (linear_k): Linear(in_features=256, out_features=256, bias=True)
            (linear_v): Linear(in_features=256, out_features=256, bias=True)
            (linear_out): Linear(in_features=256, out_features=256, bias=True)
            (dropout): Dropout(p=0.1, inplace=False)
            (Layer_scale): LayerScale()
          )
          (feed_forward): GCFN(
            (net1): Sequential(
              (0): LayerNorm((256,), eps=1e-05, elementwise_affine=True)
              (1): Linear(in_features=256, out_features=1536, bias=True)
            )
            (depthwise): Conv1d(1536, 1536, kernel_size=(3,), stride=(1,), padding=(1,), groups=1536)
            (net2): Sequential(
              (0): GLU(dim=-1)
              (1): Dropout(p=0.1, inplace=False)
              (2): Linear(in_features=768, out_features=256, bias=True)
              (3): Dropout(p=0.1, inplace=False)
            )
            (Layer_scale): LayerScale()
          )
        )
        (g_block_3): GlobalBlock(
          (block): ModuleDict(
            (ega): EGA(
              (block): ModuleDict(
                (self_attn): MultiHeadAttention(
                  (layer_norm): LayerNorm((256,), eps=1e-05, elementwise_affine=True)
                  (linear_q): Linear(in_features=256, out_features=256, bias=True)
                  (linear_k): Linear(in_features=256, out_features=256, bias=True)
                  (linear_v): Linear(in_features=256, out_features=256, bias=True)
                  (linear_out): Linear(in_features=256, out_features=256, bias=True)
                  (dropout): Dropout(p=0.1, inplace=False)
                  (Layer_scale): LayerScale()
                )
                (linear): Sequential(
                  (0): LayerNorm((256,), eps=1e-05, elementwise_affine=True)
                  (1): Linear(in_features=256, out_features=256, bias=True)
                  (2): Sigmoid()
                )
              )
            )
            (gcfn): GCFN(
              (net1): Sequential(
                (0): LayerNorm((256,), eps=1e-05, elementwise_affine=True)
                (1): Linear(in_features=256, out_features=1536, bias=True)
              )
              (depthwise): Conv1d(1536, 1536, kernel_size=(3,), stride=(1,), padding=(1,), groups=1536)
              (net2): Sequential(
                (0): GLU(dim=-1)
                (1): Dropout(p=0.1, inplace=False)
                (2): Linear(in_features=768, out_features=256, bias=True)
                (3): Dropout(p=0.1, inplace=False)
              )
              (Layer_scale): LayerScale()
            )
          )
        )
        (l_block_3): LocalBlock(
          (block): ModuleDict(
            (cla): CLA(
              (layer_norm): LayerNorm((256,), eps=1e-05, elementwise_affine=True)
              (linear1): Linear(in_features=256, out_features=512, bias=True)
              (GLU): GLU(dim=-1)
              (dw_conv_1d): Conv1d(256, 256, kernel_size=(65,), stride=(1,), padding=same, groups=256)
              (linear2): Linear(in_features=256, out_features=512, bias=True)
              (BN): BatchNorm1d(512, eps=1e-05, momentum=0.1, affine=True, track_running_stats=True)
              (linear3): Sequential(
                (0): GELU(approximate='none')
                (1): Linear(in_features=512, out_features=256, bias=True)
                (2): Dropout(p=0.1, inplace=False)
              )
              (Layer_scale): LayerScale()
            )
            (gcfn): GCFN(
              (net1): Sequential(
                (0): LayerNorm((256,), eps=1e-05, elementwise_affine=True)
                (1): Linear(in_features=256, out_features=1536, bias=True)
              )
              (depthwise): Conv1d(1536, 1536, kernel_size=(3,), stride=(1,), padding=(1,), groups=1536)
              (net2): Sequential(
                (0): GLU(dim=-1)
                (1): Dropout(p=0.1, inplace=False)
                (2): Linear(in_features=768, out_features=256, bias=True)
                (3): Dropout(p=0.1, inplace=False)
              )
              (Layer_scale): LayerScale()
            )
          )
        )
        (spk_attn_3): SpkAttention(
          (self_attn): MultiHeadAttention(
            (layer_norm): LayerNorm((256,), eps=1e-05, elementwise_affine=True)
            (linear_q): Linear(in_features=256, out_features=256, bias=True)
            (linear_k): Linear(in_features=256, out_features=256, bias=True)
            (linear_v): Linear(in_features=256, out_features=256, bias=True)
            (linear_out): Linear(in_features=256, out_features=256, bias=True)
            (dropout): Dropout(p=0.1, inplace=False)
            (Layer_scale): LayerScale()
          )
          (feed_forward): GCFN(
            (net1): Sequential(
              (0): LayerNorm((256,), eps=1e-05, elementwise_affine=True)
              (1): Linear(in_features=256, out_features=1536, bias=True)
            )
            (depthwise): Conv1d(1536, 1536, kernel_size=(3,), stride=(1,), padding=(1,), groups=1536)
            (net2): Sequential(
              (0): GLU(dim=-1)
              (1): Dropout(p=0.1, inplace=False)
              (2): Linear(in_features=768, out_features=256, bias=True)
              (3): Dropout(p=0.1, inplace=False)
            )
            (Layer_scale): LayerScale()
          )
        )
      )
    )
  )
  (out_layer): OutputLayer(
    (spe_block): Masking(
      (gate_act): ReLU()
    )
    (end_conv1x1): Sequential(
      (0): Linear(in_features=256, out_features=1024, bias=True)
      (1): GLU(dim=-1)
      (2): Linear(in_features=512, out_features=256, bias=True)
    )
  )
  (audio_decoder): AudioDecoder(256, 1, kernel_size=(16,), stride=(4,), bias=False)
  (out_layer_bn): ModuleList(
    (0-3): 4 x OutputLayer(
      (spe_block): Masking(
        (gate_act): ReLU()
      )
      (end_conv1x1): Sequential(
        (0): Linear(in_features=256, out_features=1024, bias=True)
        (1): GLU(dim=-1)
        (2): Linear(in_features=512, out_features=256, bias=True)
      )
    )
  )
  (decoder_bn): ModuleList(
    (0-3): 4 x AudioDecoder(256, 1, kernel_size=(16,), stride=(4,), bias=False)
  )
))
2024-11-02 18:10:23.144 | DEBUG    | models.SepReformer_Large_DM_WSJ0.main:main:38 - Entering 'CriterionFactory' (args=({'name': ['PIT_SISNR_mag', 'PIT_SISNR_time', 'PIT_SISNRi', 'PIT_SDRi'], 'PIT_SISNR_mag': {'frame_length': 512, 'frame_shift': 128, 'window': 'hann', 'num_stages': 4, 'num_spks': 2, 'scale_inv': True, 'mel_opt': False}, 'PIT_SISNR_time': {'num_spks': 2, 'scale_inv': True}, 'PIT_SISNRi': {'num_spks': 2, 'scale_inv': True}, 'PIT_SDRi': {'dump': 0}}, device(type='cuda', index=0)), kwargs={})
…
